weight/LeNet.pkl (torch, 182279 bytes, 10 tensors)

weight f4 [6, 1, 5, 5]
00000000: 3057 8abc 515e 07be 1b3b dabd 21de 343d
00000010: 9e1c 453e ba2f d6bd bb9a e33c eb54 1e3d
00000020: f6a7 043f a684 aa3e dd09 313e ac08 043f
00000030: 722b 233f 5230 083f 8b3a f93e 370c 943e
00000040: 4c72 e03e 181b 9b3e 9e1f 1c3e 6566 863e
00000050: 48cd 38bd c3bf 15be 59f9 52bd f389 2bbd
00000060: f9ec e1bd 9208 303e f496 b63e 0bf6 993e
00000070: ff77 07be 7cca c03d 604d 433e 3527 9f3e
00000080: d3a4 383e 38b3 5d3c fc25 2ebe ba51 9b3e
00000090: a9e7 5b3e ea71 63bc ed4a 0a3d 8003 75bd
000000a0: 38b5 b03e 7a20 153e d01f 8dbd 9de9 4bbe
000000b0: b7c0 aebc 45ee 113e 2a0a 773d a895 28be
000000c0: 90b1 30be 651d bdbb 9710 49be b32b a6bd
000000d0: a38a 77be 188e f3bd ab35 623e 71cb 5dbd
000000e0: 6006 3dbe 9f9f 06be 3f72 36bb c2fb b53e
000000f0: b6a2 b6bc e3f2 79be e062 8ebc d6f3 903d
00000100: cf5d 813e d997 3fbe 2144 13be b464 5b3e
00000110: 277c ad3e 2995 ea3e fbef 1fbd c228 ad3d
00000120: ea09 603e 98aa ba3e 6554 e33e 608c 3ebe
00000130: 400e 1f3e c08b 933e 6556 0c3d 64e0 c8bd
00000140: 040b 39be 69de 773e fd21 8c3e e227 c8bd
00000150: ac6c 5bbe 8cae 96bc 6287 b13e e2c6 8f3e
00000160: 07a0 f5bc 3be8 bdbe 5028 d83a 69b8 963e
00000170: 9bd4 c93d 7da0 e9bd acaa 6dbe 4017 4a3e
00000180: 7ccc 3a3e 0508 6b3e 9197 08be 2b9c 0ebe
00000190: 78b1 183e 1090 063d 35f1 dabd 678f 82be
000001a0: 248e 71be 315c 1a3e a7cd a33e 75ae 063e
000001b0: 49f2 53be 97cf dfbb b781 003f a126 3e3f
000001c0: 3275 2f3f 5a76 c23e 1211 513e ae66 863e
000001d0: ae81 8a3f e083 a53f de96 683f 4168 543e
000001e0: f27e 543d 6d81 0a3f 8e5d 4f3f d532 223f
000001f0: bedb 8f3e dd59 ecbd b19a 2abb 7f08 5c3e
00000200: 4555 843d 2acb 55bd 7f0c 43bd b095 c73c
00000210: 4587 953d 65b1 22be be20 2bbe 0305 b03d
00000220: 9b8f 3f3e c149 893b b377 10be 67a3 0cbc
00000230: 169c 34bc 3076 583d d633 1abe 62fc 52be
00000240: 556c 91bd dc32 74ba 6966 493e 892a 893e
00000250: 1a10 393e bf38 1bbc
-0.016887277 -0.13219573 -0.10655805 0.04415715 0.19249198 -0.10458322 0.027783742 0.038655203
0.5181879 0.33304328 0.17288919 0.5157573 0.6373817 0.5319873 0.48677477 0.2891557
0.43837202 0.30294108 0.15246436 0.26249996 -0.045117646 -0.14623933 -0.051507328 -0.041879606
-0.11031527 0.1719077 0.35662043 0.30070528 -0.13229369 0.09413621 0.19072485 0.310846
0.18031625 0.013531499 -0.17006677 0.3033579 0.2147509 -0.01388214 0.03376286 -0.05981779
0.3451326 0.1456317 -0.068908334 -0.19913335 -0.021332128 0.14251049 0.060312428 -0.1646334
-0.17255235 -0.0057713264 -0.19635235 -0.08113804 -0.2417398 -0.118923366 0.22090785 -0.054149095
-0.18459463 -0.13146828 -0.0027839092 0.35543638 -0.022294383 -0.2440906 -0.017381132 0.07077758
0.25266883 -0.18710269 -0.14381458 0.21425134 0.33883783 0.45816925 -0.039047223 0.084550396
0.21878782 0.36458278 0.44400325 -0.18608236 0.1553278 0.28817558 0.03426208 -0.09808424
-0.18070608 0.24205936 0.2736968 -0.09773232 -0.21428174 -0.018393777 0.346736 0.28081423
-0.029983534 -0.3709124 0.0016491506 0.2943757 0.098550044 -0.11407564 -0.23209637 0.19735432
0.18242067 0.22952278 -0.13339068 -0.13926761 0.14911449 0.032852232 -0.10690538 -0.25500032
-0.23589379 0.1507423 0.31992838 0.13152488 -0.20697893 -0.0068301666 0.5019793 0.74277693
0.685382 0.3798092 0.20416668 0.26250213 1.0820825 1.293087 0.90855205 0.20742895
0.051878877 0.5410374 0.8100213 0.63358814 0.28097337 -0.115405776 -0.0026032145 0.21487616
0.06461576 -0.052195705 -0.04761934 0.024363369 0.07301191 -0.15887983 -0.16711709 0.08594706
0.18707125 0.0041897004 -0.14108162 -0.00858388 -0.011023542 0.052847087 -0.15058836 -0.20604089
-0.07100741 -0.000931544 0.19667973 0.26790264 0.18072549 -0.009473979

bias f4 [6]
00000000: 93bb 423c c1ad 33ba c166 69bc bfe8 3abe
00000010: 66da 093b 7cc5 0d3d
0.0118855415 -0.00068541995 -0.01424569 -0.18252848 0.0021034717 0.034612164

weight f4 [16, 6, 5, 5]
00000000: da04 4ab9 7472 9f3c 5aff c63d 1686 453d
00000010: 9098 fc3c 7409 913d 066f 59bb 9756 813b
00000020: 0713 483d d65f 6fbb d25d adbc 6597 a1bc
00000030: 09aa d4bd 699e a8bc 2df8 13bd 298f cfbb
00000040: f0f8 37bd a65e 42bd e4ed c0bc 4f42 173d
00000050: ad3a b2bd f132 bcbd 53b6 273c bc04 c0bb
00000060: 2f4c 9b3d 6ebc 6d3d a63c 093b d68b 78bc
00000070: 5502 75bd 21fc 123d 8ab8 caba 352a fc3c
00000080: b504 523d c0fb 08bd cd24 9cbd d072 853c
00000090: 6305 163d 251f 293c 6af4 123d 62bf 94bd
000000a0: 580a 5d3c 2206 22bd 05a3 9d3c a50e 52bc
000000b0: 6a8e 86bd 107c fa3c ebc2 debc 38c7 4fbd
000000c0: 03c3 81bb 49e7 273d fbfa 313d ab23 903d
000000d0: 46f1 343d 9350 783b 1a06 50bc a28b a33c
000000e0: ff1e 5f3c 9684 a0bd 174a 203c 3b66 83bc
000000f0: 7f96 5b3c 67f6 babc 371f 22bd 3c4c 133d
00000100: 5299 cd3c 64a9 b73c 1f88 15bd d6d4 c3bc
00000110: ea8c c03d 00b9 a93d 5a23 67bd 5c0b 9a3b
00000120: f237 543d 67fb b23d 0079 663d c9ac 423d
00000130: 4544 b43c 2dfc e8ba d5f3 333d e210 86bd
00000140: 2c49 a3bb aa59 3bbc afd8 353d 6741 00bd
00000150: 6389 21ba d309 fdbb 36a8 2ebc 5bec ffbc
00000160: f905 92bd f3ee 7fbc 52d8 ad3c ae81 3e3d
00000170: 1700 9ebc 2d86 2abb fd4b 103c dfda 0fbd
00000180: 19fd 8bbc 69df 8fbd d866 6cbd 8091 6d3d
00000190: e392 323d 33de a83d 2db2 8d3d c220 d2bc
000001a0: 3ea9 c23d cbcb 843c 255c 6f3c a569 e1bd
000001b0: 94bd 59bd d2a5 cf3d d366 7abc 51df 9bbd
000001c0: 24a6 60be 91ab 14be c3e1 0c3e 2f8d e4bd
000001d0: 4227 bcbd 00d5 08be ff21 0fbd 53d4 163e
000001e0: b430 0ebe 8b79 07be 86b2 eebd 3418 86bc
000001f0: de66 083e 88ce 7d3d 3f96 9dbc 8281 343d
00000200: fab0 3ebd 730f 383c b98c 7abd 3e5f 943c
00000210: 39af 343d f128 913c 3295 a9bc ceb5 993c
00000220: 6e69 593d 8e8f fb3c ff79 b4ba 35d6 28bd
00000230: cd78 543d 8cfd 2dbd 2950 21bc 5200 a4bc
00000240: 0e29 823c a255 f13c 3199 2abd 82c3 2a3d
00000250: a087 04bb 251e 70bc 7502 643c 3b24 81bd
00000260: 44c5 f5bd f5ed 04bb 9bdc c73d ec81 833b
00000270: 50b8 263d 608a 643d 75e7 0d3e bcaf 193d
00000280: a0ec e9bd 9fe7 3d3d 8d3e 7e3c e81f f43b
00000290: e22f f5bc a47c e2bd 472a 303c c07f 3ebc
000002a0: 6520 e43c 4546 043d a155 9dbd c8c4 c73c
000002b0: c61a 9fbd e6cd 2b3d 3b08 b23c e76b 8dbd
000002c0: 3853 7f3b 6708 83bc cb2d 76bd 8896 923c
000002d0: 6e9a 88bb 9055 893d 5cf9 a53c 9c38 7cbc
000002e0: 4849 d63c 56a9 ad3d 84f6 62bd 6ce6 203d
000002f0: 6e3e 113e 781a 3e3d c47e 44bd cbbf eabc
00000300: c194 eebc 865d 83bc 7576 92bd 8827 c2bd
00000310: 81aa ce3c ae0d 183c 3db1 b1bd 6d77 4ebd
00000320: 0a93 183d 6d9a 673a 48f7 a73d f65b 2e3d
00000330: c3a0 0bbb 6cdc 263d bcb3 ef3d 9566 e83d
00000340: 6ea7 03bd 1a2a 70bd 52a0 6c3d bb19 323e
00000350: cce0 93bc 374e c6bd f770 92bc e5ca 6ebd
00000360: bda2 d83d 7dbc 09be c2a8 49bd 69d1 babc
00000370: 5896 943c 27a3 e13c 6ef0 83bd 2a61 7bbd
00000380: 6aed d3bd 2f7c 64bc 9be3 f63c 1a73 f63c
00000390: b3a8 69bd 51b4 13bd a248 aa3d 6b8a 30bc
000003a0: 842a c93b 6c8c e8bc 58f4 933d d254 55bc
000003b0: c231 643d 96ad 743d 3036 013d 2974 d53c
000003c0: ec32 6e3d 94a9 233d adfb ba3d 7203 4bbd
000003d0: 9ec3 e13c 8a07 68bd abcf 11bc da1e 2b3d
000003e0: fe2c 103c a85f a13d 42fa 4f3d 513f e9bd
000003f0: 89a0 f2bd a430 9d3d 2831 9b3d 1c4b f53a
-0.00019266029 0.019463755 0.09716673 0.048223577 0.030834466 0.07081881 -0.0033177747 0.00394709
0.04884627 -0.0036525629 -0.021162901 -0.01972551 -0.10383994 -0.020583348 -0.03612535 -0.0063342047
-0.04491514 -0.047453545 -0.023550935 0.03692847 -0.08702598 -0.09189404 0.010236341 -0.0058599394
0.0758289 0.05804103 0.002094069 -0.015170058 -0.059816677 0.03588498 -0.0015466374 0.030781845
0.05127402 -0.033443213 -0.07624207 0.016290098 0.03662623 0.010322367 0.035877623 -0.07263066
0.013491236 -0.03955663 0.019242773 -0.012820874 -0.06570132 0.030576736 -0.027192554 -0.0507271
-0.003960015 0.040992055 0.043452244 0.07038053 0.04417541 0.0037889823 -0.012696767 0.019964043
0.01361823 -0.07837789 0.009783289 -0.016039958 0.01340258 -0.022822572 -0.03958055 0.035961375
0.025097523 0.022419639 -0.03650677 -0.023905199 0.09401877 0.08287239 -0.0564302 0.004701061
0.051811166 0.087393574 0.05626774 0.047528062 0.02200521 -0.001777535 0.04393371 -0.06546189
-0.004983088 -0.011434952 0.0443961 -0.031312373 -0.0006162135 -0.0077221184 -0.010660222 -0.031240633
-0.071300454 -0.015620935 0.021221314 0.04651039 -0.019287152 -0.0026019916 0.0088071795 -0.03512084
-0.01708846 -0.07025034 -0.057715267 0.058000088 0.043597113 0.08245506 0.0691875 -0.025650386
0.09504937 0.016210457 0.014609371 -0.11006478 -0.05315931 0.101390496 -0.015283304 -0.076109536
-0.21938378 -0.14518572 0.13757996 -0.11159741 -0.09187175 -0.13362503 -0.03494453 0.14729433
-0.13885766 -0.13229959 -0.116551444 -0.016368963 0.1332049 0.06196454 -0.019236682 0.04406882
-0.046555497 0.011234152 -0.06116936 0.018111821 0.044112418 0.017719718 -0.020701025 0.018763449
0.05307906 0.0307081 -0.0013769268 -0.04121991 0.051873017 -0.04247813 -0.009845772 -0.020019684
0.015888717 0.029459778 -0.04165 0.041690357 -0.002022244 -0.0146556245 0.013916601 -0.063057385
-0.12000516 -0.0020283435 0.09758874 0.0040132906 0.040703118 0.055796027 0.13857825 0.03752111
-0.11422086 0.04636347 0.015517843 0.0074500926 -0.029930059 -0.110589296 0.010752267 -0.011627138
0.027847478 0.032293577 -0.07682348 0.024385825 -0.077687785 0.041944407 0.02173244 -0.06905346
0.0038959514 -0.015995217 -0.060102265 0.017894045 -0.0041688 0.06705773 0.020260505 -0.015394356
0.02615799 0.08479564 -0.055410877 0.039282247 0.14183971 0.04641196 -0.047972456 -0.028655907
-0.029123666 -0.016035806 -0.071515 -0.09480196 0.025227787 0.009280605 -0.08676384 -0.050406862
0.037249602 0.0008834962 0.08201462 0.04256817 -0.0021305538 0.040737554 0.117042035 0.11347691
-0.032142095 -0.0586339 0.05777008 0.17392628 -0.018051527 -0.09682887 -0.017876131 -0.058298964
0.10577915 -0.13450809 -0.049233206 -0.022804933 0.018138096 0.027543617 -0.06442343 -0.06137196
-0.103480175 -0.013945623 0.030137828 0.030084182 -0.05704565 -0.036060635 0.08314635 -0.010775189
0.0061391015 -0.02838727 0.07224339 -0.013020711 0.055711515 0.059735857 0.031545818 0.026056366
0.05815403 0.039956644 0.091300346 -0.049563833 0.027559098 -0.056647815 -0.00889961 0.04177747
0.0087997895 0.07879573 0.050775774 -0.1138903 -0.11847026 0.07675293 0.07577735 0.0018714401

bias f4 [16]
00000000: 42b3 f4bc ad26 7ebd ce6f 533b aad6 93bd
00000010: e7be 923d 6082 3ebc d85d a2bd 5529 813c
00000020: ecbc 9cbd 17da 5b3d 6561 1c3d cb51 18be
00000030: a802 0c3d 4ba2 15bd 4825 46bd a6c9 6fbd
-0.029870633 -0.062048603 0.0032262686 -0.07218678 0.07165318 -0.0116277635 -0.079280555 0.015766779
-0.076532215 0.053674784 0.03817882 -0.14874952 0.03418222 -0.036531728 -0.048375398 -0.058541916

weight f4 [120, 256]
00000000: df75 ed3c c8e9 dcb9 3f5a 853c 845a 2e3c
00000010: 4f5a 9ebc 3e57 a33c 2f8b 4bbd 529b 033c
00000020: daca 013c 4a1b 3a3d eea6 d53c 36df e83c
00000030: 19f1 3cbc 2b31 4e3c de71 0c3d b1da 273d
00000040: f563 e53c 17ed c03c 8af8 2abd b0b5 8abb
00000050: 8322 ce3c 502e 283d ee48 c6bc 563f 00bd
00000060: 5b45 ddbc c502 f93c cd8c a8bc 7f29 49bd
00000070: 3690 39bd e4bb ca3b 9a33 0d3c 31cb 40bd
00000080: 4627 183d 2aa2 1bbd 244e 6abc 041a f13b
00000090: 780e 85bc 2cbc 46bc bee4 d13b c571 89bc
000000a0: 947a 4dbd 6dcb 86bc 077c abbc 8a8d e7bc
000000b0: 88cd dfbc e821 32bd 9600 9cbc fe2c 523d
000000c0: ab42 a53c a3bc a03c 786c 043d 71bd 033b
000000d0: 97be 053d 21d0 2abc 90f0 543c c443 0a3d
000000e0: 0633 c8bc 256b 00bc 66b5 0a3d a342 30bd
000000f0: 2f54 98bc aacc 5abc 7943 11bd ea5c 293d
00000100: e0e5 183d 72a0 c6bb b367 fe3c a917 e5bb
00000110: b2e0 3c3b ef44 593c 71c3 4abd da38 e8bc
00000120: 2975 b2bc b1f2 133d d509 edbc e561 e1bb
00000130: a003 42bd a716 8ebc 3bda 8ebc 1613 0d3d
00000140: 368d 573c 8b78 e1bc fb9f a1bc 2374 b0bc
00000150: 8227 2e3d 737f e8bc 7278 65bb aeae c8bc
00000160: ceeb f1bc 290f a5bc c36d 24bd b7df a8bc
00000170: aa7e dcbb 701e 0fbd c4d6 ad3c 0fd5 a3bb
00000180: 6606 4fbd 9a95 3bbd 7b5d 5abd 4439 b13c
00000190: 8631 0dbd b9b5 bfbc d466 2fbd 1654 153d
000001a0: cd74 403d d580 e53c 6e97 30bd 4305 15bd
000001b0: 9878 5138 6c19 33bd 35ba cdbc 9ef6 2e3c
000001c0: b809 44bd 33fc 283d 4144 063d 111a b2bc
000001d0: 57d2 003d 8a12 f43c b4c7 2abd eda7 01bd
000001e0: 7b66 d8bc fd62 09bc 60e0 13bc be4d c3bc
000001f0: 3563 8a3c 7673 dd3c 37e9 cdba ff46 01bd
00000200: 7d9f 223d 3594 a73b 34a8 41bd b273 0c3d
00000210: 95e9 aa3c 227d b3bb 24d6 90bc 2c24 ea3b
00000220: 8ea6 11bd d9d0 2d3c ec8a 4dbd 93f2 a03c
00000230: 2064 72bc 5e73 0cbc e592 a53c 45f1 2dbc
00000240: d4bd 0a3d bb8a 6b3c 66df 023a 1e19 803c
00000250: 1fc4 c1bc 8390 823c 2598 76bb dae9 45bc
00000260: 8c70 2bbd 5cc9 153c 3fc7 ec38 80c5 9fbb
00000270: 8fc1 87bc 81cf 3a3d 3f06 253c 76fc 163c
00000280: 71bd 273d 3b50 bdbc 31c7 ce3c 5545 da3c
00000290: 6676 2d3d 697e 3dbd e36a 813c 97ba ac3c
000002a0: ce96 d2bc 4946 713a 11af 8f3c 8bdf 96bb
000002b0: df02 753c 408c 083d bb5c e93c 2945 173d
000002c0: 67d7 3c3d 0a69 343d e0cc e3bc 0ab4 303d
000002d0: 9500 36bd 93be 093d 0ade 20bd b9f3 1c3d
000002e0: 58c9 9bbc 5089 2ebd b3cd f63c c794 173d
000002f0: ea27 7b3c f535 3f3d 66f2 41bc 3560 94bc
00000300: 17a3 4abd 9199 5e3c 3840 48bd 3ab1 e8bc
00000310: f98f 123d 263c 233b 18f0 dbbc 2f18 eb3c
00000320: 51b2 32bc 2945 e9bc 9702 00bc 2384 cbbc
00000330: 8e77 333c 9289 18bd 3dc1 1ebd d74a b73c
00000340: 192e 95bc 1962 413d 478c 9f3c 03ce 0d3c
00000350: 17da 0cbd f2a0 abbb 592c 3c3c b30b 96bc
00000360: 951b 5cbb 9213 01bd 2e64 173d 6fa4 cf3a
00000370: 4fe7 d83c 17e8 a73c 3ca4 983c 9ec9 31bc
00000380: c931 35bd d2d2 1b3d 754d 4abd 2b93 b73c
00000390: ac33 32bc cd12 c1bc 8fea 19bc f040 f3bc
000003a0: c542 b73c 665e 0f3d 4e00 5a3b 6f59 05bd
000003b0: 1bc3 35bd 2cc0 20bd 8564 7e3c 0f74 32bd
000003c0: 5a04 e43c fe43 3f3d 32b8 013d 9600 bd3c
000003d0: 1ab2 51bc 5909 803c b585 29bc f88b 513c
000003e0: 4c53 9b3b d347 08bd eed5 82bc 5963 3eba
000003f0: f1b9 4ebd fd90 7d38 9c45 643c 9ffd c9bb
0.02898687 -0.0004213585 0.016278384 0.010641698 -0.019330172 0.019939061 -0.049693283 0.008032637
0.007921899 0.04543618 0.026080575 0.028426748 -0.011532092 0.012584965 0.03428828 0.040980045
0.028001765 0.023550553 -0.04174093 -0.0042330846 0.02516294 0.041059792 -0.024204697 -0.0313104
-0.02701061 0.030396828 -0.020574952 -0.04911184 -0.045303546 0.006186949 0.00861826 -0.04706878
0.03714683 -0.03799645 -0.014300857 0.0073578376 -0.01624225 -0.012129825 0.006405442 -0.016777882
-0.050165728 -0.016454423 -0.020933164 -0.028265733 -0.027319685 -0.043489367 -0.019043248 0.05131244
0.020173391 0.019621199 0.032330006 0.002010193 0.032652464 -0.010425598 0.012996808 0.033756033
-0.024438392 -0.007838045 0.0338644 -0.0430323 -0.01859483 -0.01335446 -0.035464738 0.041348375
0.0373286 -0.006061607 0.031055307 -0.006991346 0.0028820452 0.013261064 -0.049502794 -0.028347421
-0.021784382 0.03612012 -0.028935352 -0.006878125 -0.04736674 -0.017344786 -0.017438045 0.03444203
0.013156226 -0.0275233 -0.019729605 -0.021539753 0.042518146 -0.028381085 -0.0035014418 -0.024497356
-0.029531386 -0.02014883 -0.04014374 -0.020614488 -0.0067289667 -0.034941137 0.021220572 -0.004999764
-0.05054321 -0.045796968 -0.053311806 0.021633752 -0.034471057 -0.023402082 -0.042822674 0.036457144
0.04698639 0.028015533 -0.043113165 -0.03638197 4.9941795e-05 -0.043725416 -0.025113204 0.010678915
-0.04786083 0.04125614 0.032779936 -0.021740945 0.031450596 0.029793996 -0.041694358 -0.031654287
-0.026416054 -0.008385417 -0.009025663 -0.023840781 0.016893009 0.027032595 -0.0015709762 -0.031561848
0.03970288 0.005114103 -0.04727955 0.034290023 0.020863334 -0.0054775635 -0.017680235 0.0071454253
-0.03555923 0.010608875 -0.050181314 0.019646918 -0.0147943795 -0.008572428 0.020211646 -0.010616605
0.03387244 0.014376338 0.00049923954 0.015636977 -0.023653088 0.01593805 -0.0037627306 -0.01207968
-0.04185538 0.009142246 0.000112904694 -0.0048758388 -0.016571788 0.045608047 0.01007229 0.009215465
0.04095215 -0.023109546 0.025241466 0.026644388 0.04234924 -0.046263132 0.015798038 0.021085067
-0.025706675 0.0009203894 0.017539533 -0.004604285 0.014954298 0.033336878 0.0284866 0.03693119
0.04610386 0.044045486 -0.027807653 0.04314045 -0.04443415 0.03362901 -0.039274253 0.03831837
-0.019016907 -0.04261142 0.030127382 0.03700712 0.0153293405 0.046682317 -0.011837577 -0.018112281
-0.04947194 0.013586418 -0.04888937 -0.02840482 0.035781834 0.0024907677 -0.026847884 0.028698055
-0.010906772 -0.028475361 -0.0078131175 -0.024843281 0.010953797 -0.037240572 -0.038758505 0.022374554
-0.018210458 0.047212694 0.01947607 0.008655074 -0.034387674 -0.005237692 0.011485183 -0.018316125
-0.0033585776 -0.031512804 0.036960773 0.0015841852 0.026477484 0.020496411 0.018633 -0.010851292
-0.044236932 0.03804285 -0.049390275 0.022409042 -0.010876577 -0.023568535 -0.009394302 -0.02969405
0.022370705 0.035002135 0.0033264342 -0.032555994 -0.04437552 -0.03924577 0.015526895 -0.043567713
0.027834106 0.0466957 0.031669803 0.023071568 -0.01279881 0.015629457 -0.01034682 0.012789719
0.0047401544 -0.033271622 -0.01597115 -0.0007262729 -0.050470296 6.045493e-05 0.013932612 -0.006164267

bias f4 [120]
00000000: ae18 9bbb 4c72 90bb 0df3 403d 07c3 fe3c
00000010: 15b2 dd3c 468c 41bd e6d8 41bd 3849 b4bc
00000020: 1ee7 a33c 8b1e 78bc 2c62 213d 1013 08bd
00000030: 0d62 33bd 3dda 6bbb 26b2 a03c b140 8fbc
00000040: bc42 6b3c 50f4 27bd 57f9 383d 819e 2fbc
00000050: fe2b 1ebd d2d8 4d3d e047 23bd 2015 f2ba
00000060: cabd 1dbc ee0f 6cbc 0ef1 dfbc b150 203d
00000070: 4d5c 4d3d 6a0a 85bc ed54 9cbc ed75 d2bb
00000080: 2924 b03c dadc 343d bd1a 21bd d256 b2bc
00000090: f309 5a3d 683f 2f3d 7017 8a3c fa8a c33c
000000a0: 23dd 003d a862 19bd 109b 533d 2227 7a3d
000000b0: 40de 30bd 8534 97bc 6f4b 3cbd 2054 773d
000000c0: 3f95 413d 26d0 39bd eb69 17bc 6eb2 41bd
000000d0: 361f 483d 4f5b bfbc f000 953d a77b 4dbc
000000e0: dda7 a3bc b1b9 0b3d 2b8e ecb8 b712 30bd
000000f0: cd4c 20bc c5c0 c1bc 9b17 08bd 816c 8c3c
00000100: cc9a ef3c d8cb 433c ce5c 463c 8515 ce3a
00000110: 80dd 273d 09f9 f9bc 1663 973c ec00 083d
00000120: 18bb 8f3c 3d81 e53c c94e 083d 14be cb3c
00000130: c6ba 303d 0c68 b63c 9bfe 223d b658 b03c
00000140: ac69 593c b9c9 18bd 0c87 e6bc 7901 853b
00000150: 647e 4ebd c099 adbc a27a bfbc adbb 873c
00000160: 2563 023b b8cb 24bd 7b31 293d e96c 103c
00000170: 0f13 9fbc df67 22bd 4758 d93c 5e91 4dbc
00000180: a8e5 723c 3af2 7d3c 1940 38bd 3b55 393d
00000190: 4b42 1e3d 81d9 38bd abfe 21bd b550 01bd
000001a0: 0708 eb3b 8b4e fcbb 8c8c 403c 222f 453c
000001b0: 1f6c 503d 05e3 afbc 50e7 153d 3533 de3c
000001c0: 762a 193d 50ec 273d 9881 573c 57ef 3abd
000001d0: bb5e 443d 008c 1fbc c273 d43c 8251 213d
-0.0047331667 -0.0044081565 0.04710679 0.031098856 0.027062455 -0.047252916 -0.04732599 -0.02200757
0.020007666 -0.015144001 0.039400265 -0.033221304 -0.04379468 -0.0035988234 0.019616198 -0.017486902
0.014359172 -0.04100448 0.045159664 -0.010718943 -0.038616173 0.050255604 -0.039863467 -0.001846943
-0.009627769 -0.014408095 -0.027336624 0.039139453 0.050136853 -0.016240317 -0.019083465 -0.0064227493
0.021501618 0.044155933 -0.03933214 -0.021769915 0.053232145 0.04278508 0.016856879 0.02386998
0.031460892 -0.0374476 0.05166155 0.061072476 -0.043180704 -0.01845766 -0.045970377 0.060382962
0.047261473 -0.04536452 -0.009241561 -0.047289304 0.04885789 -0.023358969 0.072755694 -0.012541688
-0.019977504 0.034112636 -0.00011279838 -0.042986598 -0.009783936 -0.02365149 -0.033225637 0.017141582
0.029248618 0.011950456 0.012107087 0.0015722966 0.040982723 -0.030514257 0.018479865 0.033204004
0.017545268 0.028015727 0.03327826 0.02487091 0.04314687 0.02226641 0.039793592 0.021526676
0.013269823 -0.037301753 -0.028140567 0.0040590134 -0.050413504 -0.021191478 -0.023373906 0.016568983
0.001989552 -0.040233344 0.041306954 0.008815029 -0.019418268 -0.03964984 0.026531352 -0.012546865
0.014825262 0.015499646 -0.044983003 0.045247298 0.03863744 -0.045129303 -0.03954951 -0.03157111
0.007172588 -0.0076997927 0.011752259 0.012035163 0.050884362 -0.021470556 0.03659755 0.027124027
0.03739401 0.04099685 0.013153456 -0.04563841 0.047941905 -0.009737968 0.025934104 0.039384373

weight f4 [84, 120]
00000000: 44f4 3e3d 2d01 923c 3ac4 453b ee23 953c
00000010: fb91 9b3c 3815 83bd 8fec 2b3c f2cf 213d
00000020: 8f8c 8f3d 27b9 323d bfb4 0bbd a4c0 2dbd
00000030: 8963 683d c3e6 8bbd 1f72 2fbd bd35 ff3c
00000040: 6740 133d f237 d33b 7873 173c 230f 23bd
00000050: fe61 40bc 71da 7b3d ba47 a4bb 310f 66bd
00000060: ecee dd3c 545c 6cbd 7117 173d b701 80bd
00000070: 277c 9f3d 859b f1ba 761b 423d fe7c 623d
00000080: 3ec6 63bd fd8f f73c 9783 473d f628 983d
00000090: 9c20 8ebd bdcd 2f3d 4f9e 9c3d d28c 3e3d
000000a0: 28f7 a9bc bf13 2bbd 0a7a a1bc eb55 513d
000000b0: 50b2 c1bc d04e dc3c 5717 fa3c 48ac 5bbd
000000c0: ae6d 95bc 85fa 963c 3492 903c a98f e93c
000000d0: 6d20 a83d 129e 92bd 4722 6dbd 2502 9fbc
000000e0: 37b0 ef3b a6bb 4d3d fb9d d4bc 1c4d b3bc
000000f0: 4323 e93c df67 c13b 7cf8 c83b 9855 10bc
00000100: fd2e 61bd 5b99 913d f591 933d 546a 72bd
00000110: dcd3 553d 6abc 983d 1382 433c c07c 81bd
00000120: a027 30bd b2c8 853d 4151 d13c 82b7 673d
00000130: 2c1c 5cbd 8f90 313d df11 58bd 2449 833d
00000140: e6ee eebb 9d54 083c 9011 81bd 6bbb f4bc
00000150: d729 b53c 11d8 423d a89a df3a 8a8a 083d
00000160: f376 473d e68d 19bd 8237 89bd 2741 36bc
00000170: 9b5c 6bbc fe79 bdbc bae6 143d ecff a93c
00000180: 4445 013c 021e 863d 791c 38bd 8c87 b1bc
00000190: 27a7 903c 84f4 8cbd 406a 70bc f423 8e3c
000001a0: 61ea 74bd 60e3 39bd 7866 3ebd 3414 ec3c
000001b0: eb1d 39bc 5163 09bd a23b 0539 2220 babc
000001c0: c1fa b93c ba30 cd3c eee1 36bd aa13 a9bc
000001d0: 817b 4dbd b1bf 883d 0f78 63bd 0263 283c
000001e0: fd59 d7bc 48a1 d7bc 4c47 85bd 2068 8cbd
000001f0: 463e 0abd 0130 ecbd fbac 473b 9e96 47bc
00000200: eb85 fe3d d68e 583d 2718 853d 9dc9 21bd
00000210: 2617 203d ea02 4a3d 1f96 9b3c b094 473d
00000220: 6905 7f3d 9121 dc3c 2a5f 123d ae93 8b3d
00000230: 1069 dbbd 2377 973c 6811 f8bc 4ec5 5f3d
00000240: 5507 dd3a 8c25 19bd fad6 55bd 6a98 1d3c
00000250: dc40 ad3d 89df 5a3d 0d05 e0ba 512b 433d
00000260: ab66 163d 3068 c53d cce8 12bc be68 fa3c
00000270: 1621 afbd 812e 50bd 1ee5 c93d 492d 8bbc
00000280: 6002 acbd 346b 9cbd 8599 383d 7016 683d
00000290: 9d47 5f3c 11b7 9abd 586d 87bd bf5c 963c
000002a0: d3dd 683d cfc7 f5bc b893 43bd 9a77 c13c
000002b0: 274b 55bd 84d6 b43d 22a7 7c3c 4f42 2cbd
000002c0: 664f 4abc b862 a4bd a292 323c 6ef9 5fbb
000002d0: e611 54bd 50e1 5a3c c624 153d d2d8 30bd
000002e0: aa39 963d cf4f 01bd 3f84 353d 89c2 29bd
000002f0: ae8d 283d ca4b 973d 7ce8 a3bc be7e 983d
00000300: 9f26 6e3d e4c9 843d c8a9 173c 2568 6fbd
00000310: 501d ddbb 9442 e13c b573 89bd 1ab5 c2bc
00000320: 1d66 61bc 85a4 7dbc 1415 ae3d 94e5 5b3d
00000330: f3d1 b9bd 24cb 26bd 0019 79bd 0a32 853d
00000340: 7b8e 023d d894 62bd de5f 33bd ed88 193d
00000350: ddb0 8c3d 6a9b 53bc 867d dd3d 1402 9dbd
00000360: 2a60 7c3d be15 1f3d 3e2a 163d ecae bdbd
00000370: d130 a3bc 2bdf a1bc 56b6 fbbd 1258 333d
00000380: 6719 043e d7a5 82bd 7ad5 133d a074 7fbd
00000390: 598d 8a3d 03d7 623d 0dc2 2d3d 6503 ce3d
000003a0: fa7b 483d 2eb0 523d 5b4c 36bd ed85 b9bd
000003b0: 5a6f 933d c3f8 6bbc a550 303d 4d0c d1bc
000003c0: 43c6 febb 4bf1 36bd 43b2 8b3b 0b98 75bb
000003d0: 1184 b83d 0295 2b3d 693a a3bd 91d4 053d
000003e0: 478a f63c 118d 0d3d 87cb a33c 0608 3fbd
000003f0: 464a b5bd 263d b6bc 379b 4dbd 4653 7abd
0.04661967 0.017822826 0.0030176775 0.01820561 0.018990507 -0.064005315 0.010493412 0.039504953
0.07009231 0.043633606 -0.03410792 -0.042420045 0.05673555 -0.06831124 -0.042833444 0.031153554
0.03595009 0.006445878 0.0092438385 -0.039809357 -0.011742113 0.06148762 -0.0050134333 -0.05616683
0.027091466 -0.05770524 0.03688759 -0.06250327 0.07787352 -0.0018433189 0.04738947 0.055294983
-0.05560898 0.030220026 0.04870948 0.07429688 -0.069398135 0.042920817 0.076473825 0.046521015
-0.020747736 -0.04176688 -0.019711513 0.05110733 -0.023644596 0.02689305 0.030528707 -0.053631097
-0.018240776 0.018430004 0.01764784 0.028510885 0.0820931 -0.07159056 -0.057894018 -0.019410202
0.0073147076 0.050227784 -0.025954237 -0.021887355 0.028459197 0.005902275 0.0061331373 -0.00880947
-0.054976452 0.07109328 0.072055735 -0.059183434 0.052203998 0.07457812 0.011932868 -0.06322622
-0.04300654 0.0653242 0.02555144 0.05657149 -0.053737804 0.043350752 -0.05275142 0.06410435
-0.0072916625 0.008320955 -0.06302178 -0.029874524 0.022114677 0.04756934 0.0017059641 0.033335246
0.048697423 -0.03748884 -0.067000404 -0.011123932 -0.014365341 -0.02312946 0.03635285 0.020751916
0.007890049 0.06548692 -0.04494903 -0.02167108 0.01765783 -0.06882575 -0.0146737695 0.017351128
-0.059793834 -0.045382857 -0.04648444 0.028818227 -0.011298637 -0.03354198 0.00012706083 -0.0227204
0.022702577 0.025047649 -0.044649057 -0.02063926 -0.05016661 0.06677187 -0.05553442 0.010277512
-0.026288027 -0.026322022 -0.065077394 -0.06855798 -0.033750795 -0.115325935 0.0030468095 -0.012181906
0.124278866 0.052870594 0.06498747 -0.039498914 0.039084576 0.049319185 0.018992482 0.048725784
0.06226102 0.026871474 0.035735287 0.06815277 -0.107133985 0.018489426 -0.030281737 0.054631524
0.0016863147 -0.037389323 -0.05220697 0.009618858 0.084596366 0.053435836 -0.0017091349 0.04764873
0.036719006 0.09639013 -0.008966636 0.030567523 -0.085512325 -0.0508256 0.09858154 -0.016989367
-0.083988905 -0.07637635 0.045068283 0.056662023 0.013627914 -0.075544484 -0.066126525 0.018354772
0.056852173 -0.030002503 -0.047748297 0.0236166 -0.052073624 0.08829978 0.015420707 -0.042055424
-0.012348032 -0.080266416 0.010899218 -0.0034175771 -0.05177488 0.013359383 0.036412023 -0.043175526
0.07335217 -0.031570252 0.044315573 -0.04144529 0.04115074 0.073875025 -0.020008318 0.07446049
0.0581423 0.0648382 0.009256788 -0.05844893 -0.006747879 0.027497567 -0.067115225 -0.023767997
-0.013757256 -0.015481119 0.08500114 0.05368574 -0.09073248 -0.040721074 -0.060814857 0.06503685
0.03187416 -0.05531773 -0.043792598 0.0374841 0.068696715 -0.012915472 0.10814957 -0.07666412
0.061615147 0.038839094 0.03666138 -0.09261879 -0.019920738 -0.019759735 -0.12290637 0.043785162
0.12900315 -0.06379288 0.03609226 -0.06236708 0.06765241 0.055380832 0.04242139 0.10059241
0.04894636 0.05143755 -0.044506412 -0.090587474 0.07198973 -0.014402571 0.04304566 -0.02551856
-0.0077750995 -0.04466371 0.004263194 -0.0037474658 0.09009565 0.04189015 -0.07970125 0.032673422
0.030095233 0.03455836 0.01999451 -0.04663851 -0.08852057 -0.022245955 -0.050196853 -0.061114572

bias f4 [84]
00000000: 8f8b 41bd f42f 313c 3a40 363d b881 893d
00000010: df72 933d f62e 893d 8968 653d b12c 133d
00000020: 048b ae3d 3cf5 b83c 78c3 8b3c 4ad2 57bc
00000030: 70ff 513c 6064 c43d 0d39 0abd 8059 7abd
00000040: 6fae 803d 15d5 bf3d 934b 27bd d5c0 29bc
00000050: 258f 5b3d e74c 843d 7474 aa3d 300e bd3d
00000060: dd66 623d f564 b53c b793 7f3d 9484 1bbc
00000070: 436b e2bc 2c72 1ebd a7f9 4fbc 347f a83d
00000080: a5d8 a23d ac07 b03c dad8 a63d 2777 b13d
00000090: 7c0d 973d e0b6 0cbd d583 48bd ab22 0ebd
000000a0: 00d8 92bd def0 143c 11a2 7f3c 4ee1 8e3d
000000b0: 36d4 4e3d 9df3 8cbc 32ff 67bc b3d9 293d
000000c0: 4835 573d c305 c73d e36b 513d 51aa 533c
000000d0: 5e11 7cbd 74b6 aa3c 96df ec3c 9ea2 5d3c
000000e0: e6b2 743d ab27 8c3d 5ebc 383d d9dd 6dbd
000000f0: 63e8 433d 768b 85bd 157d 703d 750d 413d
00000100: a128 33bd 5499 643d 2ad2 45bc 61a7 72bd
00000110: d425 623c ce24 373d 1cec 563d 2b6e b73d
00000120: 6501 91bd d768 223d ccd7 a83d 4ee4 64bd
00000130: 6efb 2dbd e2fe 8d3d 8a76 87bd 0245 9a3d
00000140: 2d4a ea3c 10de 0e3d 7804 3f3d 5f4c 873c
-0.047252234 0.010814656 0.044494845 0.06714195 0.07199644 0.0669841 0.056007896 0.035931293
0.08522609 0.022577874 0.01706098 -0.013172695 0.012817249 0.095894575 -0.033745814 -0.06112051
0.062832706 0.09366814 -0.040843558 -0.010360916 0.05360331 0.064599805 0.08322993 0.09231222
0.05527388 0.022142867 0.06239673 -0.009492058 -0.027639037 -0.0386831 -0.012693799 0.08227387
0.07951478 0.021488033 0.0814683 0.08665305 0.07375619 -0.03435409 -0.04895385 -0.03470103
-0.07170105 0.00909063 0.0156026045 0.06976567 0.05049535 -0.017206008 -0.014159964 0.04146738
0.052541047 0.09717896 0.05112828 0.012919025 -0.06154 0.020838954 0.028915208 0.0135275405
0.059740923 0.068435036 0.045101516 -0.0580729 0.047829043 -0.06520741 0.058713038 0.047131974
-0.04373992 0.055810288 -0.012074033 -0.059241656 0.013802964 0.044712834 0.052471265 0.0895656
-0.07080344 0.039650764 0.08244285 -0.05588179 -0.04247611 0.06933381 -0.066144064 0.075326934
0.028599823 0.034879744 0.04663512 0.016515909

weight f4 [10, 84]
00000000: a8ef 823a a2a6 443e b508 89be 655d 01be
00000010: fc89 76be b042 30be 3e2a bdbd 6060 103e
00000020: 85b1 30be 16ce b5bd 6625 de3d a1c7 cf3c
00000030: 6862 673e 742f 973d 7788 67bd c2cd a9bd
00000040: e8b4 b13d 060c dcbd 5330 ae3d 931e fa3d
00000050: d21f 35be 55f4 783c 411a f4bd 0052 1b3d
00000060: 5468 403e 151f 5ebe 5328 0cbe c336 513d
00000070: 2a02 1d3d 86a5 8abd fb86 3d3b 79c8 a13c
00000080: e360 743e bef3 483e b8cd a2bd 0f1f 2dbd
00000090: 42e3 12bd 0f77 523d 00bf cc3d 10a4 323e
000000a0: a742 db3c e807 5a3d 2504 eb3c 8851 393e
000000b0: 09c5 1d3d 8a0f bbbc 2c25 673e 6a7c b9bc
000000c0: 786f fdbc 4ece 66be c4cc bcbb 5196 d73d
000000d0: 93bf 29bd 2e35 a6bd 362b b33d deb7 563d
000000e0: 2a8f 17bd 8fab 513e 4f39 a4be 3119 6f3c
000000f0: b6a4 043d cf25 afbd ad8e 14be a64f 8fbc
00000100: fe7c 8fbd 429d 33be a3c0 123d 4831 91bc
00000110: 738a 24be acb5 c13d 6345 db3b 147c 333e
00000120: 043e a23d 17e5 95bc ed74 adbd cce4 25be
00000130: 65b9 97bd ae88 393e 4cc7 16bd b928 443e
00000140: 83d6 3abe bbb8 ab3d 912a 70be 55a6 b2bd
00000150: ee0c 733d 7518 673d 755d 12be ff92 393e
00000160: 351d 54be e365 ce3c 7ece a03d a11d b9bc
00000170: 3eab 923b 4699 80bb f0ff 313d 55bf c13c
00000180: 43b4 d4bd 53f5 533e df41 a2bd 9bc2 67bd
00000190: 0ee9 9dbe f33a a43e 7400 f53c 3b3e a4bd
000001a0: a8de 113d 9870 d43c d34c 903d 475b 93bc
000001b0: a8f3 2fbe 0209 38be 5349 e33d 2a14 573e
000001c0: e57a 89bd abef e53d d84d 4cbd 222a 533e
000001d0: ad92 3cbe e8c3 1fbe 2ed6 873e ce78 f03d
000001e0: 3e6c 80bc f1ad 8f3d 6eaf 853d 6b2e adbd
000001f0: 2742 313e 3c54 cc3c 98ce 91bd 0d29 7dbd
00000200: 6970 573d e1e3 093d 4a2c 22bb 7d01 db3d
00000210: 5b23 0b3e 63c6 7b3e 40bc 153d d79c 90be
00000220: 15ec e9bc 5287 d33d 69ac 52bc fc82 0bbe
00000230: 2492 693d e4ff a13c 808d 30be 32be a5bd
00000240: c1ab 0bbe b6fc af3c 73a0 78be e0e7 043d
00000250: ad61 cb3d c07d 423e 282b dfbd 1bbd f73d
00000260: 9408 3e3e 6d98 983e 4c58 733e b7ca d83c
00000270: 7027 523c 4ea1 a3bd 005a 173d 907d 663b
00000280: c90f 3b3e 0bfe 17be 9b71 34bd 7bc0 08be
00000290: 2d1c 2ebe da41 50be a860 0dbe c782 3e3d
000002a0: 957e 063d def5 a7bd b8c7 dbbc f402 e63d
000002b0: f063 b4be 928f db3d 46d2 8b3e 8c4e 003d
000002c0: 78a3 c2bd 1049 01bd b601 a7bc 5c7c 563d
000002d0: e7cd d4bd dcd1 c0be fbcb a4bd 9134 a23b
000002e0: df3c d8bd f903 40be b6e8 41bc a738 8e3d
000002f0: 49ac 8dbe 81e6 1e3e 42b0 bfbd d264 303e
00000300: 4a4d b1bc 3772 acbe 4b72 cbbd d3d7 c8bd
00000310: a3a4 86bd c495 9fbc 9bba ffbd 0715 3f3e
00000320: 329d 90bd d27b 6e3d ea49 d4bd 54b3 c8bd
00000330: 170e 973d c1a5 143d 8203 d3bd 1e68 ca3d
00000340: 2657 4abd 2861 8abd 2210 24bc 3842 d63d
00000350: 9148 48be 880e 78bd 30bf c43e be08 b43c
00000360: 4cca 87bd a821 91be 498c 5b3e 10c6 253b
00000370: 645c b9bd e7ab 093e b6f6 09be fe19 84bd
00000380: 031a b4bb 6b39 ad3d 33ec 583b ebc6 cc3d
00000390: 4524 4e3d d28f 3dbd 820f 2dbd 394c 483e
000003a0: 7093 de3d 5884 4c3d c50c ccbb 4aa3 1abd
000003b0: ad61 eebd 6b85 b8bc e517 653d 9e5a 2c3e
000003c0: a3c8 dcbc 99fe b4bc 5e79 133e 76d3 6a3e
000003d0: 35cc c33d e704 a73e 29c7 6bbc 3768 7fbe
000003e0: 2afd 943e 5b6d 803e 4260 d3bc e221 9c3d
000003f0: 0108 ccbd f394 4fbc 2118 ac3e b584 49be
0.0009989636 0.1920419 -0.26764455 -0.12633283 -0.24076074 -0.1721294 -0.09236573 0.14099264
-0.17255218 -0.088771984 0.10846977 0.025363745 0.22596133 0.07382098 -0.056526627 -0.08291198
0.08677083 -0.10744481 0.08505311 0.12212863 -0.1768792 0.015194972 -0.1191907 0.03792
0.18789798 -0.21691544 -0.13687257 0.051077615 0.038332142 -0.06769852 0.0028919566 0.019748913
0.23865084 0.1962423 -0.07949394 -0.042265948 -0.03586126 0.051383074 0.09997368 0.17445397
0.02676518 0.053230196 0.0286885 0.18097508 0.038517985 -0.022834558 0.22572774 -0.022642333
-0.030936942 -0.22539636 -0.0057617147 0.105267175 -0.041442465 -0.08115612 0.08748476 0.052421443
-0.037001766 0.204756 -0.32074973 0.014593408 0.032383643 -0.08552133 -0.14507551 -0.017494034
-0.07006262 -0.17540458 0.035828244 -0.017723694 -0.16068439 0.09458479 0.006691621 0.17527801
0.07921985 -0.018297715 -0.084695674 -0.1620056 -0.07408408 0.18118545 -0.036811158 0.1915616
-0.18245892 0.08384844 -0.23453738 -0.087231316 0.059338503 0.05641981 -0.14293464 0.18122481
-0.20714267 0.025195068 0.07851885 -0.022597136 0.00447598 -0.0039245216 0.04345697 0.023650805
-0.10385945 0.20699053 -0.0792272 -0.056582075 -0.3084187 0.32076225 0.029907443 -0.08019682
0.035612732 0.025932595 0.07045903 -0.01798786 -0.17182791 -0.17972186 0.1109797 0.21003786
-0.067128934 0.11227354 -0.049878925 0.20621541 -0.18415327 -0.15602076 0.26530594 0.11741792
-0.015676614 0.070155986 0.06527601 -0.08456119 0.17310391 0.02494251 -0.07119483 -0.061806727
0.052597437 0.033664588 -0.0024745637 0.10693643 0.13587706 0.24587397 0.036556482 -0.2824466
-0.028554955 0.10328545 -0.012858489 -0.13624185 0.057024136 0.019775338 -0.17241478 -0.080929175
-0.13639738 0.021482807 -0.24279957 0.032447696 0.099307396 0.18993282 -0.10896903 0.12096616
0.1855796 0.29803792 0.23764151 0.02646385 0.012826785 -0.07989751 0.036951065 0.0035170056
0.1826774 -0.14843003 -0.044053655 -0.13354675 -0.17002936 -0.2033762 -0.13806403 0.046511438
0.03283556 -0.08201192 -0.026828632 0.11231032 -0.35232496 0.10720743 0.27308863 0.031324908
-0.095038354 -0.03156382 -0.020386558 0.052364692 -0.10390835 -0.3766011 -0.08046719 0.004950114
-0.10558485 -0.18751515 -0.011835268 0.06944399 -0.27670506 0.15517618 -0.093597904 0.1722596
-0.0216433 -0.3368089 -0.09933909 -0.0980679 -0.06574371 -0.019480594 -0.12486764 0.18660365
-0.070612326 0.058223553 -0.103656605 -0.09799829 0.07375734 0.036290888 -0.103034034 0.0988314
-0.049399517 -0.06756812 -0.010013612 0.10461849 -0.19558932 -0.060560733 0.38427114 0.021976825
-0.06630382 -0.2834599 0.21440233 0.0025295056 -0.09050825 0.13444482 -0.13473019 -0.0645027
-0.005496265 0.08458217 0.003309977 0.09998878 0.050327558 -0.046279736 -0.042251118 0.19560327
0.10867965 0.0499309 -0.006227108 -0.03775338 -0.11639724 -0.022524556 0.05593099 0.16831443
-0.02695114 -0.022094058 0.14401767 0.22932228 0.09560434 0.32620928 -0.014390745 -0.24942099
0.290994 0.25083432 -0.025802735 0.0762365 -0.09962464 -0.01266979 0.3361216 -0.1967953

bias f4 [10]
00000000: 810f 533d c636 1d3e e66a 573d ade4 95bc
00000010: 05d6 743c 522a b3bc 18ac cdbc 2812 f0bc
00000020: fdc7 323c 83fe a73d
0.051528458 0.15352926 0.05259218 -0.018297518 0.014943604 -0.021870766 -0.025106475 -0.029305533
0.010911939 0.08202841
